tower_decision_model.pth (torch, 101418 bytes, 15 tensors)

conv1.weight f4 [16, 1, 3, 3]
00000000: 2074 febd 246f ec3d 26f6 1e3e 24ae f13d
00000010: aa1e 2d3e 877e 9b3e 5570 9f3e 5c7d ec3d
00000020: c3ef 48be 7fce 8cbe b0be 48be 80b1 7f3d
00000030: 40c7 aa3c bb01 2bbe 6cd7 9ebd 0e3b 603e
00000040: 5288 073e 32af 3d3e 98a7 3bbe b6ec 463e
00000050: 3457 86bd b8c4 713d 2083 013c 88bb 1bbd
00000060: eaea 87be 40b2 8cbe fbb9 a2be 0ec7 7cbe
00000070: b2c3 573e 0007 163c 5f66 973e c004 50be
00000080: 64f1 a63d f6f5 a6be d8b1 2abe e223 413e
00000090: 78a5 22bd 0236 623e 72e8 4a3e b2d9 203e
000000a0: ce5d 09be ab72 a93e 140f a4bd 70fc 8a3d
000000b0: 70b8 adbc b057 84bd fa72 443e 5a3e 80be
000000c0: 4e76 0c3e 1c83 be3d a806 283e 7021 d73c
000000d0: 0007 663c 903f 8ebd eae7 343e fa84 513e
000000e0: e4e9 e03d 805b 06be 583d 11bd 3cfc 85be
000000f0: c0bf 89be 538e 27be 5689 f6bd a09b cdbd
00000100: f3db 78be e8a9 4fbe 1bf4 a4be a01d 1ebd
00000110: ea7a 603e 88e3 5b3d e83f 90be 0cb2 c23d
00000120: 6f66 9b3e c963 9b3e 0aeb 183e 7e1a 113e
00000130: 84ed a03d 9cbb bebd caf8 86be f084 f3bd
00000140: 30b8 cebc e308 a43e b35e 48be 53db 71be
00000150: 2c8f 93be 40cc 6bbd 2876 72bd 1832 07bd
00000160: c091 5b3d 3ffb 9d3e ab1b 22be b611 48be
00000170: 6a59 2e3e b0e0 c73d d397 30be c92a 993e
00000180: a6aa 09be 5056 b4bd 5817 343d 5cc2 d2bd
00000190: 9605 4bbe 031b 74be fb43 833e 100a fc3c
000001a0: 2a27 453e 4370 94be 2c26 ce3d be34 153e
000001b0: 29b3 8e3e d070 e33c c56e aa3e 2661 45be
000001c0: b29d 263e 6e1f 5ebe 8053 6dbc 66c2 643e
000001d0: f7e3 a4be e335 52be 9614 5a3e 43cc a93e
000001e0: d02c b13d c095 813b 33e5 7ebe 885f 613d
000001f0: d73d 963e be17 60be 76ce 4c3e 8af7 203e
00000200: 6208 7f3e e1b5 a33e 8813 1fbe 7037 53be
00000210: e5ef 9f3e 1aa2 033e 8a76 7a3e 00c4 18be
00000220: 88d3 43bd 6049 183d 3699 753e f0e6 e8bc
00000230: 00e8 e73b ac6e e2bd 9baa 8ebe 5eab 6a3e
-0.12424493 0.11544636 0.15523586 0.11800793 0.16906229 0.3036997 0.3114039 0.11547348
-0.19622712 -0.27501294 -0.19603992 0.062425137 0.020846963 -0.16699879 -0.07755932 0.21897528
0.13235596 0.18523863 -0.1832565 0.19426236 -0.065596014 0.059025496 0.007904798 -0.03802064
-0.26546413 -0.27479744 -0.31782517 -0.24685308 0.21070746 0.009156942 0.2957029 -0.20314312
0.0815151 -0.32609528 -0.16669405 0.18861344 -0.039708585 0.22090915 0.19815233 0.15708044
-0.1341469 0.33095297 -0.080106884 0.0678643 -0.02120611 -0.064620376 0.19184485 -0.2504757
0.13717005 0.09302351 0.16408789 0.026261061 0.014039755 -0.06945717 0.17666593 0.20460883
0.10982111 -0.13120842 -0.035458893 -0.26169002 -0.26904106 -0.16362886 -0.120379135 -0.10039449
-0.24302654 -0.20279658 -0.32217488 -0.03860247 0.21921888 0.053683788 -0.28173757 0.09506616
0.30351588 0.30349568 0.1493341 0.14170262 0.078578025 -0.093131274 -0.26361686 -0.1189059
-0.025234312 0.3203803 -0.19567375 -0.23618822 -0.2882017 -0.057567835 -0.059194714 -0.033006757
0.053605795 0.30855748 -0.15830867 -0.19538006 0.17026296 0.097596526 -0.17245416 0.29915455
-0.13444003 -0.08805525 0.043967575 -0.10290977 -0.1982635 -0.23838429 0.25637802 0.030766517
0.19253221 -0.289919 0.100658745 0.14570901 0.27871063 0.027763754 0.33287635 -0.1927534
0.16271093 -0.21691677 -0.01448524 0.22339782 -0.32205173 -0.20528369 0.21296915 0.33163652
0.086511254 0.003954619 -0.2489212 0.055022746 0.29344055 -0.21884057 0.20000634 0.15719429
0.24905542 0.319747 -0.15534794 -0.20626616 0.31237713 0.12854806 0.24459282 -0.14918518
-0.047809154 0.03717935 0.23984227 -0.028430432 0.007077217 -0.11056265 -0.27864537 0.22916934

conv1.bias f4 [16]
00000000: 8220 643e 40af adbc 0698 02be c49e a6be
00000010: 5e7e 80be f2a7 443e 60b5 d0bd b010 a33d
00000020: dc12 bf3d a46a b93d a888 083d aa83 623e
00000030: 70ee c9bd 4c2a e1bd dd9c 823e d393 3fbe
0.22278026 -0.02120173 -0.12753305 -0.32543004 -0.2509641 0.19204691 -0.101908445 0.07962167
0.09329769 0.09053543 0.03333345 0.22120538 -0.098599315 -0.109943956 0.25510302 -0.18708734

conv2.weight f4 [32, 16, 3, 3]
00000000: 86aa 39bd 62ec 463d abe5 78bd 092a 8c3d
00000010: fed5 86bd 3a8c 563d 0c66 8fbc 7cd0 813c
00000020: 380c 63bd e010 973c 7e43 6d3d 0cb6 c13c
00000030: 9c24 9dbd 137e a2bd 50ee 993b 3e32 383d
00000040: d864 44bc fe1a 8cbd 3cb7 d63c 430c 81bd
00000050: 1666 febc e9d4 953d 5dc8 a43d c0b1 23bc
00000060: 0329 09bd 5609 053d b509 a13d 0130 a53d
00000070: c093 0fbc 3472 84bc a30d a13d e67f 4b3d
00000080: c0b8 e1ba 3883 26bd 7c94 babc b075 833c
00000090: 80d2 443b d043 babc 9c5a 97bc a0c2 293b
000000a0: 3a47 623d 7e2a 193d b6b8 61bd 888f 353c
000000b0: 53e0 963d 1c2c a83c 7062 833b c8d1 5b3c
000000c0: 90a3 85bb 4007 03bc d46b cf3c 4683 213d
000000d0: f6dc 593d 34fc a7bc 69a1 943d 3cf9 8dbd
000000e0: 4619 59bd 66d2 393d 2592 943d c239 643d
000000f0: 4054 cc3b 687a 593c 88fc 413c 4875 013c
00000100: 0c15 d33c 20fc eabc 7d90 803d 6c59 e63c
00000110: 8f4c 8c3d fb1f 0bbd 4037 3c3c e034 683b
00000120: 2ca2 a5bc 2686 79bd 8bce 8ebd 7e7b 5f3d
00000130: b240 263d ded0 22bd 18a6 68bc e02e 8fbd
00000140: 8051 cc3c 1e17 353d 3e8f 543d 9cbc e93c
00000150: 10ab 78bd 6015 253d 0ce0 c7bc 1c27 a93c
00000160: 010d 9c3d 2373 78bd 70b7 83bc f054 5ebd
00000170: 6b31 813d b099 ecbb 100c a9bd e64e 413d
00000180: e47b fd3c 307d efbc eafd 053d 89a5 873d
00000190: 27bf 8c3d b6c3 c5bc 881d 06bd e0a6 7fbd
000001a0: 6069 26bd a841 55bc 602f 093d b68c 5b3d
000001b0: 00c7 cbba 557c 8e3d d0a0 293d a030 2fbb
000001c0: 1913 853d f820 09bc fae6 763d b82a 29bc
000001d0: 6521 a83d c8c2 39bd a680 01bd a831 453c
000001e0: 7613 00bd 6047 12bd c06f 563c 005a 08ba
000001f0: 7e77 673d 0046 07ba 60b7 20bc 0bb2 a5bd
00000200: 146f d13c 2373 833d 98a2 3ebc 2001 45bc
00000210: 40d8 823c 8663 043d 40ee e6bb 29e3 893d
00000220: 32f7 103d 9686 15bd 3ae5 87bd a07d a33c
00000230: f017 033d f633 50bd ae64 65bd c49c 813c
00000240: b67b 7cbd 3c33 aabc 6676 2e3d baf4 373d
00000250: 378a 9bbd 4270 0a3d 8628 0dbd f88b 233c
00000260: 2bfb 46bd b8ac 14bc f812 68bd 181b 4cbc
00000270: 3064 15bd e07e 11bb df3e 9fbd aa36 95bd
00000280: e0a3 323b 5e08 8cbd 66df 573d 566e f4bc
00000290: bc08 e0bc 5c7d e43c 7206 663d e8fc 37bd
000002a0: 925b 95bd d413 823c 3e4b 7bbd 5c31 95bd
000002b0: a05b 5bbb 98b8 5abd 7819 0e3c 7834 6cbc
000002c0: d3b2 42bd 00b0 7dbd 6463 98bd b6f3 013d
000002d0: b576 983d 5700 973d 149b c53c 2620 423d
000002e0: eec2 01bd d83e 583c 8e31 633d 374d aa3d
000002f0: acec f5bc 30f2 a0bb 604d 313c 2b82 8cbd
00000300: 9870 0ebc 9bda 6fbd da55 84bd 66c1 67bd
00000310: eaf2 8dbd 9ebe 47bd 0358 48bd e4eb a0bd
00000320: adf3 8c3d 00cc 133a 36ba 9ebd 6d13 863d
00000330: cb70 2bbd 5037 bebb 9a55 603d 76a1 713d
00000340: 2a94 7a3d 2fb5 953d 527f 423d b439 e13c
00000350: 5a2c 6e3d 36c4 4b3d af87 953d 4ae9 463d
00000360: fb65 4bbd ec7b a3bd 075a 8c3d 6ad0 253d
00000370: ad23 9d3d c0e6 9f3b 38af 493c fb58 a1bd
00000380: 108a 5cbd a533 a53d cc70 e73c 0670 323d
00000390: 1647 673d 809d 06ba 84a8 f73c 98a8 2dbc
000003a0: b6ae e0bc 8c50 c53c 1304 59bd e8e1 40bc
000003b0: e0c9 d03c e057 ce3c 9a67 88bd ceb2 71bd
000003c0: 78a5 93bd d8dc 53bd 0c7f 823c 9f2d 943d
000003d0: 6aec 6f3d 2078 303b 9b16 31bd dbf2 02bd
000003e0: b7b5 94bd 60a3 72bd c851 8cbd 6fde a23d
000003f0: 33e3 803d c017 813c c3a5 0ebd 263d 613d
-0.04532864 0.048565276 -0.060765903 0.06843955 -0.065837845 0.052379824 -0.017504714 0.015846483
-0.055431575 0.018440664 0.057925694 0.023646377 -0.07672998 -0.07934203 0.0046975985 0.04496979
-0.011986934 -0.06841086 0.02621042 -0.06301167 -0.031054538 0.07316 0.08046029 -0.009991109
-0.033486377 0.032479607 0.078631796 0.08065797 -0.008763254 -0.016167738 0.07863929 0.04968252
-0.0017221197 -0.040652484 -0.022775881 0.016047329 0.0030032694 -0.022737414 -0.018475823 0.002590336
0.05524371 0.03739404 -0.055107795 0.011081584 0.07367005 0.020528845 0.0040095374 0.013416715
-0.004078336 -0.007997334 0.025319971 0.039431833 0.05318924 -0.020506002 0.07257349 -0.06932303
-0.05300262 0.045366667 0.07254437 0.055719145 0.0062356293 0.013273813 0.011839993 0.007901497
0.025766872 -0.028684676 0.06277559 0.028118812 0.0685054 -0.033966046 0.011487782 0.0035431907
-0.020218931 -0.06091895 -0.06972989 0.05456113 0.040589042 -0.039749973 -0.014199756 -0.069913626
0.024941206 0.0442115 0.05189442 0.028532319 -0.060710013 0.040303588 -0.024398826 0.020648532
0.07619668 -0.060656678 -0.01607868 -0.05428022 0.06308254 -0.0072204694 -0.08254254 0.047194384
0.030942865 -0.029234499 0.032712854 0.0662337 0.06872397 -0.024141174 -0.032743007 -0.062415004
-0.040627837 -0.013016142 0.033492446 0.05360099 -0.0015546978 0.06957308 0.04141313 -0.0026731864
0.06497783 -0.008369677 0.06027887 -0.010325126 0.082094945 -0.045351774 -0.03161683 0.012035765
-0.03126856 -0.0357126 0.013088167 -0.00052013993 0.05651044 -0.0005160272 -0.009809345 -0.080905996
0.025565661 0.06418445 -0.011635445 -0.012024194 0.015972257 0.032321475 -0.0070474446 0.067327805
0.035391994 -0.036505304 -0.06635518 0.019957364 0.03200525 -0.050830804 -0.05600422 0.015821822
-0.061641417 -0.020776384 0.042593382 0.044911124 -0.07594722 0.033798464 -0.034462474 0.009982102
-0.048579376 -0.0090743825 -0.056658715 -0.0124576315 -0.0364725 -0.0022200868 -0.077756636 -0.07285817
0.0027258322 -0.068375334 0.052703284 -0.029837769 -0.027347915 0.027891807 0.05615849 -0.044918925
-0.07292856 0.015878595 -0.061351053 -0.07284805 -0.003347136 -0.0533987 0.008673064 -0.014416806
-0.04753382 -0.061935425 -0.07440832 0.03172656 0.074445166 0.07373112 0.024121799 0.04739394
-0.03168004 0.013198577 0.05546718 0.08315509 -0.03002008 -0.0049116835 0.01082167 -0.06860765
-0.008693837 -0.058558088 -0.064616874 -0.056580923 -0.06931098 -0.04876577 -0.04891206 -0.078574926
0.06882415 0.00056380033 -0.07750361 0.06546674 -0.041855615 -0.0058049336 0.054769136 0.05899187
0.061176457 0.07309949 0.047484703 0.027493335 0.058147766 0.04974767 0.0730127 0.048562326
-0.049657803 -0.079826206 0.06853109 0.040481962 0.0767282 0.0048798025 0.012309842 -0.078783
-0.053842604 0.08066491 0.028252028 0.043563865 0.056464277 -0.00051351637 0.030231722 -0.010599278
-0.027427059 0.02408626 -0.0529824 -0.01177261 0.025486887 0.025188386 -0.066603854 -0.059008412
-0.07209295 -0.051724285 0.015929721 0.07235264 0.05857507 0.0026927069 -0.04323445 -0.031969886
-0.07261222 -0.059237838 -0.06851536 0.07952582 0.06293335 0.015758395 -0.03482605 0.054989956

conv2.bias f4 [32]
00000000: 4f9a a73d eea8 67bd 380b 1dbc 37e6 8fbd
00000010: 68bb 24bc b03e bdbb 302f 943c 1c5b 8dbd
00000020: 9a10 553d f2d5 643d 30c2 8d3c 12fc 453d
00000030: 7266 5f3d b60b e8bc 73b0 64bd 36a0 c7bc
00000040: 74d2 f83c d2af 3b3d b42f a8bd 361e 5f3d
00000050: dc8a d13c b8d3 603c 1182 903d 3e3c 2d3d
00000060: e609 1dbd 2b53 70bd 4dd6 8f3d 58bd 19bc
00000070: a042 61bc 7823 2a3d 703c ed3b a077 2f3b
0.08183729 -0.05655759 -0.009585194 -0.07026332 -0.010054447 -0.005775295 0.018088907 -0.06902143
0.052017786 0.055868097 0.01730451 0.048336096 0.05454106 -0.028325897 -0.055832338 -0.024368387
0.03037379 0.045821972 -0.08212224 0.05447217 0.025578909 0.013722353 0.07056058 0.04229378
-0.038339518 -0.058673065 0.070232965 -0.009383522 -0.013748795 0.041537732 0.0072398707 0.0026774183

conv3.weight f4 [64, 32, 3, 3]
00000000: 4e75 ba3c 4a15 b5bc 8a22 863c 2c61 bcbc
00000010: 9fbe 243d d0ef 6d3b 1694 dcbc d440 55bd
00000020: 0fdd 70bd e4a2 443c 5c7d 88bc fec2 b8bc
00000030: 2cb5 163c cc2c 00bc 5bc1 263d 6e8d b93c
00000040: f138 3bbd d596 29bd 5026 1bbb eea5 6dbd
00000050: f22f 29bd 040c 113c 9848 b9bc cbcd 1e3d
00000060: c8d9 f0bb 7c77 033c 4da5 42bd b09f 713b
00000070: efb0 5fbd 20c4 e1ba bd8b 603d e096 e6ba
00000080: b295 943c a8d7 74bc ce2e f03c 8bea fdbc
00000090: bcfb 673c 9a4f f1bc 6e27 2abd c8ec d73b
000000a0: fc47 773c 389d 48bc 0509 4b3d a729 233d
000000b0: 89ef 17bd 719b 3abd 8230 12bd d687 eb3c
000000c0: 48ef e5bb b3e8 533d 0052 a0bb f627 2ebd
000000d0: ba39 24bd 9486 753c f8b0 3cbd 25ee ffbc
000000e0: 8e32 e33c b2ee 29bd e55d 453d c968 6cbd
000000f0: fd95 453d 60d4 9bba c4ea 5c3c db22 46bd
00000100: 45c4 5b3d ad9c 3a3d fa8b 4fbd 70bd babb
00000110: b44b 273c 3035 b1bc 2438 83bc dcb8 1e3c
00000120: 36a8 f73c 56c8 aa3c f0f5 8bbb 4027 e2bb
00000130: b283 cebc 13af febc b964 37bd 3898 92bc
00000140: 3ee5 2dbd 1a92 1ebd 64f9 04bc cac6 06bd
00000150: 8629 e2bc 7010 24bc 7d67 5a3d fee3 a03c
00000160: 000d 62bd f0c6 81bb ef84 563d 923a bf3c
00000170: ce71 e73c 27f4 6dbd 6134 4c3d 75f7 70bd
00000180: 0020 0bbb b8fb a43b e9be 623d f46d 3abd
00000190: 0ba7 203d 39cf 3d3d 6cab 4b3c 9183 333d
000001a0: 18ab 50bc f777 1e3d 327b 96bc 72a7 f23c
000001b0: cc61 9ebc ca48 0cbd e677 bf3c d834 e73b
000001c0: 105c 67bc 84d0 16bd 79bd 1c3d c290 b7bc
000001d0: 7439 43bc ab32 4c3d c1d4 1b3d 5c30 4e3c
000001e0: bbc6 6a3d 260b fb3c 2540 6b3d 6215 10bd
000001f0: fbc8 6cbd d47c 14bc 4728 6e3d 1aea 0abd
00000200: 8778 503d ec0c 463c c773 433d c29f f63c
00000210: 28a9 a93b 228e d63c cc42 31bd a652 ed3c
00000220: be55 893c 145a aabc ff74 edbc c00a 09ba
00000230: 1637 d43c 6737 323d 20f0 073b 1770 653d
00000240: 267b ee3c c90b 453d 47c4 3d3d 2467 75bc
00000250: dc05 08bc fafa d1bc 5d57 073d 13cd 64bd
00000260: 0c91 29bd aab8 e23c 5817 46bc e0b1 623b
00000270: c057 163a d354 2bbd 62c9 b63c b0b1 fbbb
00000280: c85c 1bbd bd14 5e3d 50a1 29bd 0ad1 b63c
00000290: a425 423c 10ef 93bb dc8a 16bd 0ca7 09bc
000002a0: 926b 3cbd 01d9 353d 88b7 abbc d20b d13c
000002b0: 0728 2b3d 6b7b 603d 8620 63bd 8054 1a3b
000002c0: 0be9 34bd 2fd2 3b3d 24ce 0a3c 9f06 6c3d
000002d0: bdb1 593d 5152 06bd dc6d 783c d3ac 493d
000002e0: def2 d3bc fa63 58bd 3c43 6cbd eb66 2e3d
000002f0: 344c f2bc 94c8 d7bc 8013 473a b8fb f13b
00000300: e3f3 1b3d 3a67 18bd 51cd 6b3d 0864 8dbc
00000310: beb1 a03c 00e9 42b9 0890 d9bb 5b44 6e3d
00000320: dc2e 3fbd 3095 753b dd62 6c3d 10f2 b5bb
00000330: b6f3 9dbc 8bb9 683d 5b74 2c3d ce96 1bbd
00000340: 0d38 263d 931a 38bd 9cc2 49bd 96b4 d23c
00000350: 1fbc 353d ec6d dcbc 1096 563b e3b2 6bbd
00000360: 6865 a53b 8f80 1d3d 1856 0fbc 947a ecbc
00000370: cf3a 003d 0875 22bd 190a 4d3d ced5 b63c
00000380: f22b cb3c 8f32 273d 939b 6d3d 03a3 3f3d
00000390: 1ad8 c23c 788b 26bd cc45 30bd 5044 7c3b
000003a0: d9c5 393d f043 0dbd a4d6 d1bc 0042 ccbc
000003b0: fea6 d43c 65d5 e4bc 66bd cc3c 756d 5b3d
000003c0: c8b1 93bb ce38 bbbc 3f61 3e3d 2086 63bd
000003d0: 8a34 dbbc ea22 9c3c c2f8 13bd bc82 2fbd
000003e0: 7669 b6bc 8465 edbc 34fe 4e3c fa5f a9bc
000003f0: 80c6 55bc 1f46 50bd 1e7f a43c 553d 0e3d
0.022761013 -0.022104878 0.016373891 -0.022995554 0.040220853 0.003630627 -0.026926082 -0.052063778
-0.058804568 0.012001727 -0.016661339 -0.022553917 0.009198468 -0.00782318 0.040711742 0.022650447
-0.0457086 -0.04140361 -0.002367396 -0.05801957 -0.04130549 0.008852962 -0.022617623 0.03877048
-0.0073501803 0.008024093 -0.047520924 0.0036868863 -0.054612096 -0.0017224588 0.054820765 -0.0017592572
0.018137787 -0.014943995 0.029319193 -0.030995628 0.014159139 -0.029456902 -0.04154151 0.006589506
0.015092846 -0.012244515 0.04956915 0.039834645 -0.037093673 -0.045558397 -0.035690792 0.028751295
-0.00701705 0.05173559 -0.0048925877 -0.04251858 -0.040094115 0.014985699 -0.046067208 -0.031241486
0.027734067 -0.041487403 0.048185248 -0.05771712 0.048238743 -0.0011888854 0.013483707 -0.048373085
0.053653974 0.045559574 -0.0506706 -0.0056988522 0.01021092 -0.021631807 -0.01601798 0.009687629
0.030231576 0.02084748 -0.0042712614 -0.0069016516 -0.025209282 -0.031089341 -0.04477379 -0.01789485
-0.04245495 -0.038713552 -0.0081161 -0.032904424 -0.02760769 -0.010013685 0.05332135 0.019639965
-0.05518818 -0.003960483 0.05237287 0.023343358 0.028252508 -0.05809417 0.04985464 -0.058829743
-0.002122879 0.00503489 0.055357847 -0.045515016 0.039221805 0.0463402 0.012431007 0.043826643
-0.012736104 0.038688626 -0.018369291 0.02962086 -0.019333743 -0.034249105 0.023372602 0.00705586
-0.0141210705 -0.03681995 0.038266633 -0.022407893 -0.011915553 0.04985301 0.038044695 0.012584772
0.05731843 0.030644964 0.05743422 -0.035176642 -0.057808857 -0.0090629645 0.05814388 -0.033914663
0.050896194 0.012088042 0.047717836 0.030105475 0.0051776357 0.026190821 -0.043276593 0.028970074
0.016764518 -0.020794906 -0.028986452 -0.0005227737 0.025905173 0.043509867 0.002074249 0.0560151
0.029111456 0.048106942 0.046329763 -0.014978204 -0.008302178 -0.02563237 0.0330423 -0.055859637
-0.041398093 0.027675945 -0.0120905265 0.0034590885 0.00057351217 -0.04182894 0.022312824 -0.007681094
-0.03793028 0.054218996 -0.041413605 0.022316474 0.011849795 -0.0045145825 -0.03675352 -0.0084016435
-0.046001025 0.044396404 -0.020961538 0.025518332 0.04178622 0.0548052 -0.05545094 0.00235489
-0.04416756 0.045854744 0.008471999 0.057623502 0.05314802 -0.032793347 0.015162911 0.049237084
-0.025872644 -0.05282972 -0.057681307 0.04257862 -0.029577352 -0.02634076 0.0007594153 0.0073847435
0.038074385 -0.03720782 0.05756885 -0.017259613 0.019616004 -0.00018588081 -0.0066394843 0.058170658
-0.046675548 0.0037472956 0.05771147 -0.0055525377 -0.01928125 0.056817573 0.042103153 -0.037985615
0.040580798 -0.04494722 -0.04925786 0.025720876 0.04436886 -0.026907884 0.0032743253 -0.057543647
0.005047489 0.03845268 -0.008748554 -0.028867044 0.031306084 -0.03966239 0.050058458 0.022318747
0.024801228 0.0408197 0.058009695 0.04678632 0.023784686 -0.04066035 -0.043035313 0.0038492866
0.045354698 -0.03448862 -0.025615044 -0.024933815 0.025958534 -0.027933786 0.024992656 0.053571183
-0.004507277 -0.022854235 0.04647946 -0.055547833 -0.026758451 0.019059617 -0.036125906 -0.042849287
-0.022267085 -0.02897907 0.012633849 -0.020675648 -0.013047814 -0.050848123 0.020080145 0.03472646

conv3.bias f4 [64]
00000000: 41ac 5bbd 06a8 82bc 4ecb 97bc ba14 31bd
00000010: b8fa 17bd 242a 02bc b753 163d ccc0 7a3c
00000020: 203d 11bc b099 6dbb 813d 2d3d 1211 c1bc
00000030: 5be1 66bd 3447 24bc 4c23 0abc 152e 3f3d
00000040: 0098 5c39 aa5e 36bd d6e2 94bc 0017 103a
00000050: 246a b7bc 6d86 3e3d 0061 f5ba 3089 c6bc
00000060: 8468 023c 1fe1 103d 970f 353d 1052 b1bc
00000070: 40f7 26bd 9cc3 0d3c 7c38 5dbc b454 4e3c
00000080: 76ca 24bd 0054 f739 4eb6 a03c 47cf 2b3d
00000090: 9653 983c 4e80 fe3c b06c 7cbc f426 323c
000000a0: 0b21 5d3d d044 2cbd 188f e1bc 1391 0f3d
000000b0: 0650 09bd 1f56 5cbd c781 5d3d 1f30 603d
000000c0: 66ff 973c 8f12 6f3d 0ee0 d53c ac6b 4a3c
000000d0: 806c 373b dea4 e53c d392 1ebd 38f4 e63b
000000e0: 60e0 e7ba 113b 223d 542e ebbc 66a6 89bc
000000f0: af20 3e3d aab0 5abd 7eff 8fbc b1f4 2e3d
-0.05363107 -0.01594926 -0.01852956 -0.043232657 -0.03710434 -0.007944617 0.03670093 0.015304755
-0.008864671 -0.0036254935 0.042294983 -0.02356771 -0.05636726 -0.010026742 -0.008431267 0.046674807
0.0002103746 -0.044523872 -0.01817457 0.00054965913 -0.022389479 0.046514917 -0.0018720925 -0.024235338
0.007959489 0.035370942 0.04420432 -0.021645576 -0.04076314 0.008652594 -0.013502236 0.012593437
-0.040232144 0.00047174096 0.01961818 0.041945722 0.018594544 0.03106704 -0.0154067725 0.010873545
0.05398659 -0.042057812 -0.027534053 0.035050463 -0.033523582 -0.05379307 0.054078843 0.05473339
0.0185544 0.05836731 0.026107814 0.012354773 0.0027988255 0.028032716 -0.03871424 0.007048156
-0.001769077 0.03960711 -0.028708614 -0.016802978 0.04641789 -0.053391136 -0.017577883 0.042713825

money_fc.weight f4 [32, 1]
00000000: 48bc f23e 6cdc 8bbe 3cba afbe 0e8a 23bf
00000010: e0b4 43bf 2451 5ebf 504d e4bd 5c24 b5be
00000020: daf3 4a3f 8ca2 9b3e 88e0 9c3e c067 dd3d
00000030: 207b 1b3f 6eb2 4a3f 4057 9abd 36dc 4b3f
00000040: d4ce 49bf 9cb3 a0be c877 47bf dece 593f
00000050: f2e7 0a3f 9474 47bf 807b 63bd e0f5 7dbd
00000060: dcbc 8f3e e893 243f f686 603f 8e48 553f
00000070: e8b8 c73e a0c5 5bbf 70c3 733f 58e5 a83e
0.47409272 -0.27316606 -0.34321773 -0.6388253 -0.7644787 -0.8684256 -0.11147559 -0.35379303
0.7927834 0.3039745 0.30640054 0.10810804 0.6073475 0.7917851 -0.07536173 0.7963289
-0.7883122 -0.3138703 -0.77917147 0.8508128 0.5426017 -0.7791226 -0.0555377 -0.062002063
0.28073776 0.6428819 0.87705934 0.83313835 0.3900826 -0.85848427 0.9522009 0.32987475

money_fc.bias f4 [32]
00000000: 3c7b 80be e0a1 8dbd 004e 5cbe 301e 363f
00000010: 5cb2 68bf c08b 29be b809 1a3f 9200 5abf
00000020: 46dd 31bf dca6 b8be 28f8 023f c05c ce3e
00000030: d0a0 ea3d ecb4 bdbe 783d dabe 3032 9d3e
00000040: 98c0 6cbf 1261 1c3f 3ca2 e2be 10d8 21bf
00000050: 50a2 6c3f b0b1 eabd f896 793e e2a0 56bf
00000060: 90e4 ffbd 907f 983d 9c52 1c3f 408a f03e
00000070: b69d 503f 30fe 29bf c296 473f 4c8f 16bf
-0.2509402 -0.06915641 -0.2151413 0.7113981 -0.90897155 -0.16557217 0.6017108 -0.8515712
-0.6947826 -0.36064804 0.51159906 0.40305138 0.11456454 -0.37052095 -0.42625022 0.30702353
-0.92481375 0.6108562 -0.442644 -0.6322031 0.9243517 -0.114596725 0.24373996 -0.8383924
-0.12494767 0.074462056 0.6106355 0.46980476 0.8149065 -0.66403484 0.77964413 -0.58812404

cost_fc.weight f4 [32, 1]
00000000: 18c5 5e3f 5eb1 54bf dcfa ca3e dc9c 533f
00000010: 503f 153f cc19 7cbf fcef 923e 7420 c1be
00000020: 48cd 24bf 6e1b 5fbf 223e 09bf 08b5 433e
00000030: a83f 513f 1811 53be 0470 83be a090 1fbe
00000040: fa13 553f 4024 f9bc bc3c dfbe cc34 7abf
00000050: ee63 673f 5832 68bf a8dc 70be 7040 b4bd
00000060: 826a 59bf 24dc 28bf 208e f63e 369d 27bf
00000070: 7e9e 75bf 800c d0be 7c96 473f 6c79 58bf
0.8701949 -0.8308314 0.39644516 0.82661223 0.5829973 -0.9847686 0.2869872 -0.37720072
-0.64375734 -0.8715123 -0.5361043 0.19112027 0.81737757 -0.2061199 -0.256714 -0.15582514
0.83233607 -0.030412793 -0.43601024 -0.9773681 0.90386856 -0.9070182 -0.23521674 -0.08801353
-0.84928143 -0.6596091 0.48155308 -0.6547426 -0.95944965 -0.40634537 0.77963996 -0.84560275

cost_fc.bias f4 [32]
00000000: b094 4d3e 6015 43bd 944e b53e 9096 f53e
00000010: d859 0f3e 3c83 35bf 9057 593f e8f1 003e
00000020: 5e8e 75bf 00c0 c1b8 6e1e 423f 16fe 2ebf
00000030: 08d3 143e ac93 a93e 289f fe3e 94e5 963e
00000040: 441e 113f 8032 483d 40aa 46bf 8cf1 ddbe
00000050: d0f3 5d3f d009 75bf fc10 753f b00b eb3d
00000060: bc95 513f c8f4 dcbe 007f a5bc 80d6 8b3e
00000070: 9ac4 3f3f a6d3 76bf 701b 383f 1c09 7d3f
0.20076251 -0.047627807 0.35411513 0.47966433 0.13999116 -0.7090337 0.84899235 0.1259228
-0.9592036 -9.23872e-05 0.7582768 -0.68356454 0.14533627 0.33120477 0.49730802 0.2947203
0.56686807 0.048876286 -0.7760353 -0.43348348 0.86700153 -0.957181 0.9572904 0.114768386
0.818691 -0.43155503 -0.02020216 0.27312088 0.74909365 -0.964167 0.71916866 0.98842025

place_conv.weight f4 [1, 128, 1, 1]
00000000: 80fa c6ba 1074 70bd 8017 3a3b 7a5a f6bc
00000010: 20ad 193b 008d b939 672d 8e3d 4572 3abd
00000020: 182e 923c 82b1 0c3d d358 88bd 10fc cdbc
00000030: f0a9 02bc 93f0 17bd 8892 543c 50d4 1bbd
00000040: fa06 7f3d f088 e43c 5867 7a3c c471 92bd
00000050: a84f da3c d1db 75bd 5631 343d 04a3 a1bd
00000060: ea71 753d 3d7e af3d 8e7a 58bd 72a0 d7bc
00000070: a996 903d 4525 47bd f81c d3bc 8fca 953d
00000080: e45d 8f3c c819 7bbd 9841 b6bc b706 993d
00000090: 976b 05bd 9804 b6bc 610b ae3d 99c6 0bbd
000000a0: 94eb fd3c a7ce 993d 51b9 61bd e718 b3bd
000000b0: bd20 af3d 6707 a2bd f870 bfbc 875d a13d
000000c0: b4f6 50bd 024d 1b3d 9115 74bd 7117 a83d
000000d0: 0892 5ebc 251e 803d e80b 14bd c55d 8a3d
000000e0: 34f9 9dbc 1023 833c a008 b03c 1c7f a9bd
000000f0: c64a 14bd 2bdc 8f3d a8db 2d3c 8a21 0a3d
00000100: 1017 43bd ca3d 80bd 6b1d 82bd 647a 95bc
00000110: 872d 92bd 498b b13d 2cb9 0b3d 4ca3 dbbc
00000120: 8660 213d 728f 06bd 0737 a6bd 4e74 79bd
00000130: 5b75 53bd 03c9 8cbd 087f 933c a449 a6bc
00000140: ba5c 4c3d 8059 9f3c 6e3b 223d 001f e33b
00000150: 0c81 a0bd 6d94 863d 8e4a 373d 62f0 433d
00000160: 9a69 fdbc c179 89bd 2631 303d c684 92bd
00000170: c822 4cbd 9188 91bd 5e41 a2bd 89d3 923d
00000180: e9d0 06bd 0131 9d3d 46a3 8abd b420 9b3c
00000190: 94b7 99bd e47e c03c 88e4 65bd a7f2 ab3d
000001a0: fca2 87bd 645d 75bd 5f44 973d 71a3 a93d
000001b0: e3a9 943d c1a3 803d 0926 93bd e296 3e3d
000001c0: fa39 9ebd f719 983d c637 7cbd b0cb 6a3c
000001d0: d1fc 9b3d 9f7a 903d 276c aa3d 8f7e 68bd
000001e0: 38dd 31bc 5006 c63b b2dc dcbc 21a6 b33d
000001f0: 2016 73bb 5663 2a3d 0cb7 89bd e5bc 6cbd
-0.0015180856 -0.058704436 0.0028395355 -0.03007244 0.0023449138 0.00035391003 0.069422536 -0.045519132
0.017844245 0.034348972 -0.06657567 -0.025144607 -0.007975087 -0.037094664 0.012974389 -0.038044274
0.062262513 0.027897328 0.015283428 -0.07150605 0.026649311 -0.060024086 0.043992363 -0.07892421
0.05992309 0.08569 -0.052851252 -0.026321623 0.07059986 -0.048619527 -0.02577065 0.073140256
0.017500825 -0.061303884 -0.022248074 0.07471984 -0.03257331 -0.022218987 0.08498264 -0.034124944
0.030996121 0.07510119 -0.055108372 -0.08744984 0.08551166 -0.07911568 -0.023369297 0.07879167
-0.051016524 0.037915237 -0.05959088 0.08207596 -0.013584621 0.062557496 -0.036144167 0.06756166
-0.019283868 0.01600793 0.021488488 -0.08276197 -0.036204122 0.070244156 0.010611452 0.03372339
-0.047629416 -0.06261785 -0.06353267 -0.018246837 -0.0713759 0.08669145 0.03411214 -0.026811264
0.039398693 -0.032851644 -0.081159644 -0.060901932 -0.05162559 -0.068742774 0.01800491 -0.020298786
0.04989312 0.019451857 0.039607458 0.0069311857 -0.07837114 0.06571279 0.044748835 0.04783667
-0.030934144 -0.06712676 0.04301562 -0.07154231 -0.049837857 -0.07106126 -0.07922624 0.071692534
-0.032914076 0.076753624 -0.06769423 0.018936493 -0.07505718 0.023498006 -0.056126148 0.08395892
-0.06622884 -0.059903517 0.073860876 0.08283127 0.07258966 0.062812336 -0.07184989 0.04653061
-0.07725902 0.074268274 -0.061576627 0.014330789 0.0761658 0.07054638 0.0832141 -0.05676132
-0.010855965 0.006043233 -0.026960704 0.08771921 -0.0037092045 0.04159864 -0.067243665 -0.05779733

upgrade_fc.weight f4 [3, 64]
00000000: 00ac e53c 1829 9e3c a648 8ebd f8b8 adbc
00000010: 102e 2fbc ded1 cabd f6a5 a63d 80af 893a
00000020: b01d 2bbd 8a90 f53d 2009 adbb 14ba 413d
00000030: b860 f0bd 202a 7c3c 2a05 cdbd c4dc e3bd
00000040: 0017 68ba 4860 0e3d c04b cd3c d005 63bd
00000050: 603e e43d 7495 c7bd 0061 28ba 5c97 773d
00000060: 1c4f 20bd 8085 623c 3444 4a3d 7441 aabd
00000070: 4460 923d a4f4 133d 8036 813c b432 d1bd
00000080: 80c1 9bbc d84c 40bd fcad 25bd 6052 65bc
00000090: 3adf 943d 7ca7 423d 485b 8dbd 8acd b53d
000000a0: 9834 a03d f416 97bd 50d6 903d 483f e9bd
000000b0: 4236 efbd 20c3 c93b 10c6 ef3d 5065 163d
000000c0: be38 8d3d 40a8 64bc d09d ed3d 90ad 99bd
000000d0: 2024 e83c 1c89 f13d d0e0 5ebc fc1d a63d
000000e0: 5819 da3d 080c 203d e015 8a3c d04d 573c
000000f0: 009c a9bb 1a72 8ebd a235 d23d 801c 8bba
00000100: c87a 873c b842 713d 089b dfbc 1602 abbd
00000110: 5078 9dbc 6444 a2bd 6051 cc3c a449 b4bd
00000120: 5254 c73d e8df 7d3d daa9 a3bd 8063 eebd
00000130: 9044 6bbc f41a 4c3d 7061 d53d 363b c33d
00000140: 0cde 8d3d 00ce ac39 9015 ccbd dc17 d0bd
00000150: 80c3 14bd 84ed 493d 0852 823c 0cda 843d
00000160: b0e1 1fbc b00e 67bd e03e 4b3c bc9b 86bd
00000170: 08a3 c93c 6c6b 86bd 80e7 813b 5e51 a8bd
00000180: 3c77 cfbd 006f da3d 30b8 e83c 008d 90bd
00000190: 8223 e73d c8f6 3fbd 80c2 a93d 04cb 3fbd
000001a0: 3e53 933d 2467 14bd a88b 973d 08ae 9ebd
000001b0: acb4 91bd c64a 90bd 6631 cb3d da96 ccbd
000001c0: 1cdb e5bd a8af f5bd 009c 60ba a4d2 063d
000001d0: acab 663d f044 55bd 762f a33d d213 c1bd
000001e0: 5834 66bd 8058 c3ba d481 523d f0ee 8cbd
000001f0: c0d7 f73d 5e4b c3bd 705d 463c 606a 4ebd
00000200: 5017 bbbd d494 113d 24da 68bd ae6f c1bd
00000210: 88b0 a1bd 70f7 10bc 449f d4bd dc84 3fbd
00000220: 104b a73c 148a 9c3d cc71 673d c043 a4bb
00000230: b488 bd3d ca26 c43d ee56 bcbd b041 8e3c
00000240: 041f 283d 78a1 733d 286b a33d 504f 003d
00000250: be41 c03d e412 a2bd 0e37 e5bd 342a 1f3d
00000260: 26a7 af3d d88f ce3d 92f9 f43d 9e84 e9bd
00000270: 10c8 24bc dc6a c43d 9415 753d 988c a1bd
00000280: 2c23 48bd fa8f b93d 0c3e 413d 5427 433d
00000290: a0cc e1bd a81b c0bd b094 92bc 82e8 df3d
000002a0: e8f0 f43d 6071 373d 8c41 8d3d 901f cf3d
000002b0: d8aa dabc 86a2 f93d f896 db3d 00c1 353d
000002c0: 86d0 aa3d 9826 6d3d 6495 01bd c01a ddbc
000002d0: 2e1d 88bd 5c67 38bd 5c18 22bd 88bb dfbc
000002e0: 56d6 883d aae2 af3d 7a3f e83d aae0 883d
000002f0: 3c33 963d d41f 673d 3847 d8bd 58d3 bb3c
0.028036118 0.019306704 -0.0694745 -0.021206364 -0.0106921345 -0.0990331 0.08137123 0.0010504574
-0.04177636 0.11990459 -0.005280629 0.0472966 -0.11737198 0.015390903 -0.100107506 -0.11126092
-0.0008853525 0.03475979 0.025060534 -0.055425465 0.111447096 -0.09745303 -0.00064231455 0.060447082
-0.039137945 0.013825774 0.04938145 -0.083132654 0.071472675 0.03612198 0.015773058 -0.10214749
-0.019013166 -0.046948284 -0.040449128 -0.0139966905 0.072691396 0.047523007 -0.06902176 0.08877094
0.078225315 -0.07377425 0.07072127 -0.11389023 -0.11680271 0.006157294 0.11707699 0.036717713
0.06895588 -0.01395613 0.11602366 -0.075038075 0.028337538 0.1179373 -0.013603404 0.08111188
0.10649365 0.039073974 0.016856134 0.013141111 -0.0051760674 -0.06955357 0.10264136 -0.0010613352
0.016538039 0.05890152 -0.027295604 -0.08350007 -0.019222409 -0.07923201 0.024941146 -0.08803108
0.0973288 0.06198111 -0.07991381 -0.11640072 -0.014359608 0.049830392 0.10418975 0.09532778
0.06927118 0.00032959878 -0.0996505 -0.10160801 -0.036319256 0.04929878 0.015908256 0.06486902
-0.009758398 -0.05641049 0.012405127 -0.06572673 0.024613872 -0.06563458 0.0039643645 -0.082186446
-0.10130164 0.10665703 0.02840814 -0.070581436 0.112860695 -0.04686621 0.08289051 -0.04682447
0.071936116 -0.036231175 0.07399684 -0.077480376 -0.071145386 -0.07045512 0.099215314 -0.0998971
-0.112234324 -0.119963944 -0.00085681677 0.032915726 0.056316063 -0.052067697 0.07968037 -0.094276085
-0.056202263 -0.0014903694 0.051393345 -0.06881511 0.12101698 -0.095358595 0.012107238 -0.050394416
-0.09135306 0.035542324 -0.05684866 -0.09445129 -0.07894999 -0.008848056 -0.1038194 -0.046757564
0.020421535 0.07643524 0.05650501 -0.0050129592 0.0925459 0.09577711 -0.09196268 0.017365307
0.041045204 0.05948016 0.07979423 0.03132564 0.09387539 -0.07913759 -0.111921415 0.038858607
0.08576803 0.1008603 0.11961664 -0.11402248 -0.010057464 0.09590694 0.05983503 -0.07888144
-0.048861668 0.090606645 0.047178313 0.047644928 -0.11025357 -0.09380275 -0.017893165 0.10933019
0.11960012 0.044785857 0.06897268 0.10113442 -0.026692793 0.12189202 0.107221544 0.044373512
0.08340554 0.057898134 -0.03163661 -0.026990294 -0.066461906 -0.045020446 -0.039574012 -0.027311102
0.06681506 0.085881546 0.11340232 0.06683476 0.07333991 0.056426838 -0.10560459 0.022927925

upgrade_fc.bias f4 [3]
00000000: dc2b 933d 84b5 bf3d 648e b53d
0.071861 0.09360793 0.088650495

wait_fc.weight f4 [3, 64]
00000000: 68af bc3c 8c37 f53d 60df 72bd 7c9f 7b3d
00000010: c60c f2bd e82e b03d defa bc3d a243 81bd
00000020: dc6f 493d 1a96 abbd c894 0d3d 888a f8bc
00000030: 9460 4c3d ba99 8b3d 82d6 f33d 4c3d 823d
00000040: 7896 e93c 2039 99bc a2d8 9b3d 78a2 fb3c
00000050: f884 bd3c b293 fbbd 3846 e0bc 0845 bc3c
00000060: eaab 9a3d a051 aabb 50bc 4fbc 7007 49bd
00000070: e0a1 bd3b 54fa 87bd a885 fe3c 4c79 dabd
00000080: 940f c0bd 80aa 14bc b689 a53d 7cbd 9f3d
00000090: 8c21 2abd 40d6 c33d c08a 6b3c 60aa 85bb
000000a0: 709b 46bd fc1b 59bd 40e1 e3bd e0a4 bdbb
000000b0: 283b 6fbd fa46 98bd 7025 9ebc 00b6 dd3d
000000c0: 00bd b7ba 56fa a9bd 30b2 993d 38ce a63c
000000d0: d890 ad3c 18c9 1f3d 98ff 91bc 1ef4 8fbd
000000e0: d881 b63c 2c10 5fbd 7a70 e7bd 20f3 e13c
000000f0: b0d3 103c b07c f1bc b64e d4bd 7411 17bd
00000100: 0044 1dba 30c1 aebd 76aa d43d 2a3b fcbd
00000110: 2eb8 d8bd d8a3 a0bd ecad 973d 18fe 9f3c
00000120: 26d1 cd3d 5064 bf3d 0033 5c3a eebc d83d
00000130: f24d d53d 7c2e 90bd 982d 873d 2a2b d43d
00000140: 5014 88bd 2040 8b3d 0817 c6bc 8434 7cbd
00000150: d4e1 97bd 0cce 46bd 4edd 953d dec2 bb3d
00000160: 5a60 b83d b000 f2bd 1454 71bd ae5e d53d
00000170: dea0 b3bd 80d5 cd3d f0ac 363d 38ad be3c
00000180: d230 d83d a0a5 74bd 8462 c83d d04a eebd
00000190: 42e9 f63d ccd0 86bd 6085 fe3d 3a32 bbbd
000001a0: 046c 46bd 3621 d9bd 1494 be3d f4ce 2cbd
000001b0: 8850 3d3d 685c 5cbd dcfa 01bd 8892 093d
000001c0: b077 9e3c 50c4 56bd 582e abbc 3c60 86bd
000001d0: b240 d5bd 7c2c 95bd cc9e 83bd be49 97bd
000001e0: 30d6 40bd de11 f53d 706f d7bc 3a14 f73d
000001f0: 5619 903d 2ce1 c2bd 4053 6bbc 24aa 043d
00000200: 88ff efbc 362a b33d 1496 d53d 62a8 ed3d
00000210: 6008 003d 9832 e83c 902d 8abc 800f 49bd
00000220: 2448 ac3d e019 9b3b 1ca2 adbd cc87 d63d
00000230: d46a 14bd b2a4 eabd 50e2 babc 368e c6bd
00000240: e4fc e03d e82f a3bc 1680 a93d 70fd af3c
00000250: 782d e33d debd f43d c8db f03c 0273 f73d
00000260: 3414 6ebd 207d 393d a8fb c83d 7aaa f7bd
00000270: b44d b1bd 98d2 513d 94a0 e03d e489 10bd
00000280: 7816 aabd 486d 8b3d acf5 bfbd 604d 5e3c
00000290: 56df cb3d 6a59 80bd e033 143d 70bb e4bc
000002a0: 4acf c7bd b866 d5bc e2bf de3d f8d9 87bd
000002b0: 8a9f 83bd bef9 863d c8a4 aa3d 6401 0ebd
000002c0: 58b5 36bd 408a 9abc 5ec7 c43d 8ee9 c43d
000002d0: 3c34 ad3d ace8 3d3d 70d3 133d d489 133d
000002e0: b84d ec3d 646b 49bd 60e0 87bc e42c 353d
000002f0: fe2e 953d 1a27 bbbd 7a4e a73d 1806 bf3d
0.023032859 0.11973485 -0.05929506 0.061431393 -0.118188426 0.08602697 0.092275366 -0.06311728
0.049178943 -0.08378239 0.034565717 -0.030339494 0.04989679 0.068164304 0.119061485 0.06359348
0.028514132 -0.018703997 0.07609679 0.03071712 0.023134694 -0.1228403 -0.027377233 0.022982135
0.07552321 -0.0051977187 -0.012679175 -0.04907936 0.0057871193 -0.06639543 0.031069592 -0.10667667
-0.09377971 -0.0090738535 0.08082907 0.07799813 -0.0415359 0.09562349 0.014376342 -0.004079148
-0.04848808 -0.053005204 -0.111269474 -0.005787477 -0.058406025 -0.07435413 -0.019304961 0.10825729
-0.0014018118 -0.08299701 0.0750469 0.020362005 0.021187231 0.039010137 -0.017822072 -0.070289835
0.022278711 -0.054458782 -0.1130075 0.027581751 0.008839533 -0.029478401 -0.103665754 -0.03688188
-0.00059992075 -0.08532941 0.10384075 -0.12315972 -0.105820045 -0.07843751 0.0740622 0.019530341
0.100496575 0.09345305 0.00083999336 0.105829105 0.104152575 -0.07040116 0.06600493 0.103597954
-0.06644499 0.0679934 -0.024180904 -0.06157352 -0.0741612 -0.048536345 0.07317601 0.09168027
0.090027526 -0.118165374 -0.058918074 0.10418449 -0.08770917 0.100504875 0.04459852 0.023275957
0.10556187 -0.059728265 0.09784415 -0.11635363 0.12056209 -0.065827936 0.12427783 -0.09140439
-0.048442855 -0.106020376 0.093055874 -0.042189553 0.04621938 -0.053799063 -0.03173338 0.03358701
0.01934418 -0.052433312 -0.020896122 -0.06561324 -0.1041273 -0.07283875 -0.064267725 -0.07387112
-0.047079265 0.119662985 -0.026298255 0.12064405 0.070360824 -0.095156044 -0.01436311 0.03238882
-0.029296651 0.087482855 0.10429016 0.11604382 0.031257987 0.028344437 -0.016867429 -0.049087048
0.08412197 0.004733309 -0.084781855 0.1047512 -0.03623469 -0.114571944 -0.022812992 -0.09695093
0.10985735 -0.019920304 0.082763836 0.021483153 0.11092657 0.11950277 0.029401675 0.12082483
-0.058124736 0.045285344 0.098136246 -0.12093063 -0.08657399 0.05122623 0.10968128 -0.035287753
-0.08305067 0.06807953 -0.0937303 0.013568252 0.09954707 -0.062670544 0.036182284 -0.027921408
-0.09756334 -0.026049957 0.108764425 -0.06633371 -0.06426914 0.06590603 0.08332211 -0.034669295
-0.044606537 -0.01886475 0.09608339 0.096148595 0.084572285 0.04636447 0.036090314 0.036020115
0.11538261 -0.04917468 -0.016586483 0.044232264 0.07284354 -0.091383174 0.08169265 0.09327334

wait_fc.bias f4 [3]
00000000: c2f1 ff3d f8dc 133d 78dc c5bc
0.124972835 0.036099404 -0.02415298
